resources/ETG/904f210ms.onnx (onnx, 9826 bytes, 7 tensors)

layers.0.weight f4 [16, 4]
00000000: f8c4 4f3f 4d25 9abe a5d3 63be 35c1 703e
00000010: f01b a53f 42a6 c6bf f4bc 8b3d c884 b2bd
00000020: 4f9a a5bf 07e6 583f 264e abbe 3e72 133e
00000030: 37ac 8a3f 6ebf 203f 67aa e4bd a680 633d
00000040: a643 35c0 6ecd c1be 0ac4 643c 1c1f 543d
00000050: d139 26bf e158 4b3e dfbb 03be ba08 933c
00000060: 6ab3 9fbf f94e 933f 7eeb bf3d 805a bd3c
00000070: f08c 423c d9ef 99bf 69f2 1dbe 6ad4 093e
00000080: fd71 6f3e 3fb1 1dbf 3e1d 8fbe 9255 c33e
00000090: 5b82 81bf 3689 31bf d987 403d d9d3 95bc
000000a0: 1ce5 26bf af03 463e 88c3 38bc f5c5 c03d
000000b0: 9628 50bf 548d 0640 707a 8ebd 3211 63bd
000000c0: c1d1 613f 7c9c ac3f 7042 89bd abdb 053e
000000d0: 76b4 353f 640e 0b3f 42b8 92bc a48d a83b
000000e0: 6965 bc3d 1ad3 c8bf 47da 003e b76a 4f3d
000000f0: 09c3 1d3f 53ea a53f 755f 42be 4f92 89bd
0.81159925 -0.30106583 -0.22248705 0.23511203 1.2899151 -1.5519488 0.06823149 -0.08716732
-1.2937716 0.84725994 -0.3345806 0.14399049 1.0833806 0.627921 -0.11165314 0.05554261
-2.832254 -0.37852043 0.013962755 0.05178748 -0.6493197 0.19858123 -0.12864636 0.017948497
-1.2476628 1.1508476 0.093710884 0.023114443 0.011874422 -1.2026321 -0.15424503 0.13459936
0.23383327 -0.6159858 -0.27951998 0.38151222 -1.0117906 -0.6934999 0.047004554 -0.018289493
-0.65193343 0.19337343 -0.011277087 0.09412757 -0.8131193 2.102376 -0.06956947 -0.05543632
0.88210684 1.3485255 -0.06702125 0.13072078 0.70978487 0.54318833 -0.017910127 0.005143838
0.0919903 -1.5689423 0.12583266 0.05063888 0.61625725 1.2962135 -0.18981726 -0.06717359

layers.0.bias f4 [16]
00000000: 713f 94be 10bd 7f3d 8565 123e c19e babd
00000010: c8ac e03b 8b57 43bf f940 8ebd 5295 213e
00000020: b16b bdbc 62a7 093f beee 543e 9ac6 953e
00000030: 0b51 a33e 40ec adbe 103c 853e 7568 303e
-0.28954652 0.062436163 0.14296539 -0.09112311 0.0068565346 -0.76305455 -0.06945986 0.15779617
-0.02312264 0.5377103 0.20794198 0.29253083 0.31897768 -0.33969307 0.26022387 0.17227347

layers.2.weight f4 [32, 16]
00000000: 9396 e13e 158c 253f fb35 3fbf 4c0a 5f3f
00000010: 23e7 713e 0979 263e 4355 03bf 0ed7 f6be
00000020: 6f73 3ebe 8d1d 74bf e703 e8be fe60 933d
00000030: c505 aebd 0e5c 873f b61c d3be 6516 f4bc
00000040: debe bbbe 493e 9b3f 7c4f e7be 2693 5ebf
00000050: af98 c23e 5639 b2be 4ed1 0abf 76c2 5c3f
00000060: a158 f53d 8d87 af3e 57a0 9b3e 48a1 123e
00000070: cab5 d83d 698f 61bf 4c3a d83e f8bc e5be
00000080: 8fbf 4cbf ca63 71be 0150 70bf ba42 8dbf
00000090: 90fd 813e 2dc0 9cbe 1fce 863d 10f5 89be
000000a0: f666 37bf 0755 0b3e 8f7c 333e a3b1 b63e
000000b0: 4110 bc3d 4aea c1bc cf85 d33e 8a02 9dbe
000000c0: d194 60be e206 1bc0 9df5 db3e 3579 f03e
000000d0: 569e 8dbe c1eb 8c3e 793d 323f 1cb0 c2be
000000e0: aa56 83bc 3494 bb3d bec2 6bbe 9690 b23f
000000f0: dabd 9d3e 478b 3c3e 5912 5bbf 8d59 ad3e
00000100: 2206 a13e f9cd 95bf b711 2a3f 314a 303f
00000110: a539 c9be 0222 a13e 8385 fc3e 1504 3ebf
00000120: ad4a dfbd c005 ebbd 1155 1abe b73c 40be
00000130: 99d6 ecbd b84a e83e 7f62 29be 99bc b93e
00000140: dc7e 95be cf7b 073f 9972 d33c 2848 96bf
00000150: 16e0 033f 971a 73bd bce6 62bc c7a9 5c3f
00000160: 080a 8bbd 15fd db3e 18ab c23e 5a9f 433e
00000170: 2fb8 b1bd 996f b1bf c1a2 c43d 7396 97bd
00000180: 56ef be3e 163c c3be 789e 123e ab2b 10be
00000190: 3c07 bd3e 99b8 0f3f 458f dcbe 0f91 a83d
000001a0: 9bf0 3fbe 27ec 94be da24 313e 9c4f 183e
000001b0: ee92 54bd 1a2c 1b3e 6cb0 2c3d 9a15 1f3d
000001c0: 51ef 70be 9e30 3a3f 7fd9 41bf 586c 18bf
000001d0: 65c0 553e 4698 0ebf 899b d7be f1cd 0f3f
000001e0: 9190 a93e d918 1a3e 5e37 163f 6dd9 e33d
000001f0: 4a5a 1e3e 0310 8fbe b4a5 0b3f 07d3 edbd
00000200: bbfc 7cbd 109f 10c0 3349 b53e 402d f13c
00000210: 1b86 08bd 1826 083d 5c30 e83e 9e36 edbe
00000220: fcbc 39be bb22 fb3b 747d 0b3d 21ae 273e
00000230: 168e 663b d59b f73e 9831 2f3e ceba bf3d
00000240: 8759 6e3e 5067 84bf c85d 533e 4b1c ad3f
00000250: f000 dbbe 664b a33d 1d1f e83e eb31 48bf
00000260: ae43 4cbf a470 6dbe 5668 e53c 9850 4b3f
00000270: 2883 ab3e 2890 043f a0bc 143d ef09 ad3e
00000280: adbc 4e3d 9c74 273e abe9 26be 746d a03e
00000290: fd39 a0be 6df2 b73e 69b6 c63e 155d 2cbf
000002a0: 459f 32bf 28f6 34be de4d 21bf 372d d63d
000002b0: 4ace 023e f1d1 0c3f 193b 47be 7994 873e
000002c0: a367 8cbd dde0 69bc b068 c33d 70a5 18be
000002d0: 6282 b5be 17c9 10be ecdb fb3e 49ff 503e
000002e0: 1457 023f 0f37 933e 4b77 a0bc c98f 4cbe
000002f0: d24b 993d 1bec a4be 8d06 f23b 2fd3 43be
00000300: 7619 4f3e 23d9 2abd 478c 88be 75fa 673f
00000310: e794 7bbe 72fc 823e 3fb8 973e d066 73bf
00000320: 73c8 1fbf 2c37 02bf 01ba 3abf 3b18 1bbe
00000330: 7d54 413c 1643 d93f ca61 e3be bd92 de3d
00000340: aeef 0dbf 7cf1 0fc0 a1f2 d43e 6eab db3f
00000350: ff63 9fbf afc1 843e c75f 253e a643 17bf
00000360: 57e9 f9be d33c 1cbd ed89 0bbd 24c3 853f
00000370: a77a 333f 142b d73e 75d0 36bf 9760 673e
00000380: c6b2 323f f9cd fd3e 7b41 9c3e 64dd d43f
00000390: 0897 cfbe 086e bc3e 9be0 c93d 16c2 cbbe
000003a0: 3470 09bd 85bb 8dbe eb33 2abf 175e 93bd
000003b0: e70d 483e 5ecd e13e 54e8 b3be be67 b43e
000003c0: 19d9 31be d70c 88bd 6102 073e 564b c1be
000003d0: 72d5 c4be 921c 20be 12ae a73e 543e 763d
000003e0: e856 da3d 189d 723e 5a61 17be ea79 79be
000003f0: c429 23bd 3f0c a2be 89d7 53bd 56ad 87bd
0.44060192 0.64666873 -0.7469174 0.87125087 0.23623328 0.16257109 -0.51301974 -0.4821095
-0.18598722 -0.9535759 -0.45315477 0.07196234 -0.08497194 1.0574968 -0.41232842 -0.029795835
-0.36669058 1.2128383 -0.4517783 -0.8694328 0.38007113 -0.3480937 -0.54225624 0.86234224
0.11979795 0.34283105 0.30395767 0.14319336 0.105815485 -0.8810945 0.42231977 -0.44870734
-0.79979795 -0.23573223 -0.93872076 -1.1035988 0.25388765 -0.30615368 0.06582283 -0.2694478
-0.7164148 0.13606654 0.17527984 0.356824 0.09182788 -0.023671288 0.41313025 -0.30666
-0.21931769 -2.422295 0.42960826 0.46967474 -0.27659863 0.27523616 0.6962505 -0.38024986
-0.016032536 0.09159127 -0.23023507 1.3950374 0.30808908 0.18412505 -0.8557487 0.33857384
0.3144999 -1.1703483 0.6643328 0.6886321 -0.39301792 0.31471258 0.4932061 -0.7422498
-0.10902915 -0.11475706 -0.15071513 -0.18773161 -0.11564369 0.45369506 -0.1654148 0.362767
-0.2919835 0.5292329 0.02581148 -1.174077 0.51513803 -0.05935153 -0.013848957 0.8619656
-0.06789023 0.42966524 0.3802116 0.19103757 -0.08677708 -1.3862182 0.09601355 -0.07401743
0.37291974 -0.3813178 0.14318264 -0.14079158 0.36919582 0.5614105 -0.43078056 0.08230793
-0.18744127 -0.2908642 0.17299214 0.14874119 -0.051897936 0.15153542 0.042160437 0.03883896
-0.23528792 0.72730434 -0.757225 -0.5954032 0.20874174 -0.557011 -0.4211085 0.56173617
0.33118108 0.15048541 0.58678234 0.11125455 0.1546413 -0.27941903 0.5454972 -0.11612516
-0.06176446 -2.2597084 0.3540741 0.029440522 -0.033331018 0.033239454 0.45349395 -0.46330732
-0.18138498 0.0076640523 0.03405519 0.16375019 0.0035179905 0.48361078 0.17108762 0.09361802
0.2327634 -1.0344028 0.20641243 1.3524259 -0.42774153 0.079733655 0.45336238 -0.7820117
-0.7979077 -0.231875 0.028003853 0.7941985 0.33498502 0.51782465 0.0363127 0.3379664
0.050472904 0.16353077 -0.16300075 0.31333506 -0.31294242 0.35927144 0.38811043 -0.6732953
-0.69774276 -0.17672026 -0.6300944 0.10457843 0.12774006 0.55007845 -0.19456138 0.26480463
-0.06855705 -0.014274803 0.09541452 -0.1490686 -0.35451037 -0.1413921 0.49191225 0.20409884
0.5091412 0.28752944 -0.019588133 -0.19976725 0.07485165 -0.32211384 0.007386035 -0.19123529
0.20224556 -0.041710984 -0.26669523 0.9061654 -0.2456852 0.25583225 0.29632756 -0.95078754
-0.62415236 -0.50865436 -0.7294007 -0.15145962 0.011799929 1.6973598 -0.44410545 0.10867832
-0.5544385 -2.249114 0.4159136 1.7161691 -1.2452391 0.2592902 0.16149817 -0.590876
-0.48810837 -0.038143944 -0.034067083 1.0450177 0.7010903 0.42025054 -0.7141183 0.2259544
0.69804037 0.49571207 0.30518708 1.6630063 -0.40544915 0.36802697 0.09857293 -0.39796513
-0.03355427 -0.2768213 -0.6648547 -0.071956806 0.19536553 0.44101995 -0.3513819 0.352354
-0.17367972 -0.06643074 0.13184501 -0.3775279 -0.38444096 -0.15635899 0.32749993 0.060118034
0.10661107 0.23692739 -0.1478323 -0.24362913 -0.039834753 -0.31649968 -0.051719222 -0.06624858

layers.2.bias f4 [32]
00000000: e996 bdbe 2ff4 a93e 85d6 a63e f3e2 c43d
00000010: 574f a0be 5796 343e f7a4 6cbe 16e4 ab3e
00000020: 356a 9dbc 5a7f 38be 3d70 84bd c102 8c3d
00000030: 9163 28be 3167 293e d312 3abe 6c87 823d
00000040: e5b2 0d3d 84d9 363e 662c a13e dadf 0d3e
00000050: 1631 f63d 65fb cbbe 1ac9 f2bd 1b09 033f
00000060: 6fab c63d 05f8 7abd 75a3 6e3e 2abb b53d
00000070: 2d70 f43c 33b2 ebbd 4712 7fbe 49dd 323d
-0.37029198 0.3319411 0.3258554 0.096136 -0.31310531 0.17635475 -0.23109804 0.33572453
-0.019215683 -0.18017331 -0.0646672 0.06836463 -0.16444232 0.1654327 -0.18171243 0.06373486
0.034594435 0.17856413 0.31479186 0.13854924 0.12021081 -0.39840236 -0.11854763 0.5118577
0.09700667 -0.061271686 0.23304541 0.08873589 0.029838646 -0.11508598 -0.24909316 0.043668065

layers.4.weight f4 [16, 32]
00000000: 8725 24be 2409 a7be 52c5 8bbf 56bd 0a40
00000010: 5abc 993e 85ea 8ebe 9117 f9bd 059a d9be
00000020: 3cb9 a43e 3254 a63f 8b2f d6be ff4d 8f3e
00000030: 3459 183e f728 ce3f 575e 303f a9e6 f13c
00000040: 65c3 c9be 0bfd 75be 9a80 83be d040 a7be
00000050: d697 7c3e daf8 543e ce93 5f3f de5b b73d
00000060: b212 8f3f 1d0b 58bf 3106 8f3e aa5c acbd
00000070: 290d 69be aa1a 76bf be10 fbbd 4499 b1be
00000080: f064 9cbb 10c9 db3e 0619 f63e 3a02 40c0
00000090: 3e78 cbbe 894a 5f3e 14f1 1d3d f090 d23e
000000a0: 3ff6 fcbe c466 4fbf 6827 553e 48ce 30be
000000b0: c1d8 0fbe 1283 07c0 b264 0dbf 0bd5 3f3d
000000c0: 6e30 8c3f 8346 253e dcfb e13e 557d 80bf
000000d0: 87f6 a1be 9c87 c5be c391 b4bf 217c af3e
000000e0: 4f52 ca3d feb1 bf3f b991 b0be 983b 0fbe
000000f0: 454a 4ebd fba0 c63f 50ec 9cbc 7f46 243f
00000100: 7937 183f 7e59 89bd 6190 70bd 4797 20c0
00000110: 0596 9d3d f099 293d df82 3e3f 9d10 23bd
00000120: edb4 9bbe baf3 343e 4a2e 8cbe 69dd fbbe
00000130: 9bb8 833d abbd 93bf cf1a 1bbd 24f4 0abf
00000140: 9ded 9e3f 2c0c 1bbd 6682 ecbd 9cfa d43f
00000150: da5f 84be 4c99 fd3d 9472 7a3e cef3 52c0
00000160: 4107 8dbf c12b 143f 466a 13bf 2cee a6bf
00000170: 88c7 e33d c442 b73e 5618 ee3e 1f3d 00bf
00000180: c9a0 173f 26f4 86bd 8d8b 19be 83f8 40c0
00000190: 683d 8a3d 701b 773d f551 043f a96b 4fbc
000001a0: df8c acbe 0b92 643e 18ed 0abe b629 bcbe
000001b0: 5ecf 993d 3396 aabf b85d 65bd 7cc0 fcbe
000001c0: 8d9a 923f 7a32 1cbc 2ecf 98bd 8b44 ee3f
000001d0: ced0 d6bd f1d3 e63d a0f4 713f 300b 13c0
000001e0: 9551 c8bf 63ea e83e 301e 05bf 2a8a bbbf
000001f0: e3b4 2b3d 4f5a edbc 4968 0d3f 6307 52bf
00000200: e1fa 6dbf fbdf 943e 084f d13e addb e83f
00000210: 521c 6dbe 5c5b 813e c095 89bf b2f0 863e
00000220: 4792 b83c f967 05be f333 6cbd 209b 203e
00000230: 6167 c0be 3ad1 8e3f b026 09be 6dbe 043f
00000240: 5c94 aabf e135 b93e d09c 9b3e 6522 97bf
00000250: 91c7 443f fa8a aabe 0331 61bf b139 cb40
00000260: 3564 31be 2522 27c0 5480 673f 8820 db3e
00000270: aaae 5f3e 4d7e 5fc0 608b 67bf 843c 80be
00000280: 22a3 3fbe 72a1 04bf 22bc 49be baa3 ab3e
00000290: 8a9c 033f 978f bcbf 677a 5abe 7398 d7be
000002a0: 6351 e63f 5dfe 8f3f 1ab7 263f 0ec2 dcbd
000002b0: 365c 6e3f 2fe3 ca3e d05c 123f 8108 b53d
000002c0: a554 02bf 696d 9abf 37b7 00bf 6701 11bf
000002d0: 15b3 ae3e 88ab f53e 4461 3abe 49e7 143e
000002e0: 5fba ce3e df73 f0be 1e30 a53e 64aa ac3e
000002f0: 52fc a8bf b46b 05bf 45ef 1a3d 25d1 e3bd
00000300: c610 9dbe f208 1c40 acb8 143e aff2 393e
00000310: e550 f8bf 7697 913f 50b0 4dbb be18 a23f
00000320: 2e8f 08bf 7d09 e3be 08bb f9bf ae5d ab3e
00000330: 3381 78c0 06fe e73d f53c 5bbf daa6 8f3e
00000340: 8438 943e 2e9d 3a40 e30b 0740 303b abbe
00000350: 3c0a b03e ba1f 99bf 8114 a7be 3acc 823d
00000360: c9d1 2bbe 8ff5 80bd 9963 803c 1610 f2be
00000370: f7b6 0c40 c80c d73d 00d4 c1be ec6e fc3e
00000380: ffc6 85bd 95d9 dfbe 17e4 f03e bb44 843f
00000390: 1335 d53e aecc 67bf a53b fbbd a4bd 69be
000003a0: b153 763f baa4 e53f f8d0 343d 0389 b4be
000003b0: 8ddd c33e 269e 3d3f 6f61 043f 98d5 04be
000003c0: 543d 26bf bc5d 08bf faf9 e2be 18a5 16bf
000003d0: 176d 5b3d 8417 6b3e 27ec 5dbe 5ad6 e1bc
000003e0: c5fb 6d3f 5ec6 47bf 8995 ca3e 54b4 dc3d
000003f0: d836 e8be 7f1e edbe d424 a0be bb12 51bf
-0.1602994 -0.3262416 -1.0919592 2.1678061 0.30026513 -0.279133 -0.12162698 -0.4250032
0.32172573 1.2994444 -0.41833147 0.27989194 0.14877778 1.6106251 0.6889395 0.029528933
-0.39406887 -0.2402231 -0.25684053 -0.32666636 0.24667296 0.20798054 0.8733491 0.08953069
1.117758 -0.8439196 0.2793441 -0.08416112 -0.22758926 -0.96134436 -0.12259053 -0.34687245
-0.004772775 0.42926836 0.48065966 -3.000136 -0.39740175 0.21805777 0.03855999 0.41126204
-0.4940662 -0.8101618 0.20815814 -0.1726619 -0.14047529 -2.117375 -0.55231774 0.046834033
1.095228 0.1614018 0.44137466 -1.0038248 -0.31633398 -0.38580024 -1.4106983 0.3427439
0.0987898 1.4976194 -0.34486178 -0.13987577 -0.050363798 1.5517877 -0.019155651 0.6417007
0.59459645 -0.067065224 -0.05873144 -2.5092332 0.076946296 0.041406572 0.74418443 -0.039810766
-0.30411473 0.176711 -0.27379066 -0.4919236 0.06431695 -1.1542257 -0.037867364 -0.5427878
1.2416264 -0.037853405 -0.11548309 1.663898 -0.2585438 0.12382755 0.2445777 -3.2961307
-1.1017839 0.57879263 -0.57584035 -1.3041434 0.11122042 0.35793126 0.46502942 -0.50093263
0.59229714 -0.06589536 -0.1499464 -3.015168 0.067499936 0.0603289 0.51687557 -0.0126599455
-0.33701226 0.22321336 -0.13567007 -0.36750573 0.07510255 -1.3327087 -0.05599758 -0.49365604
1.1453415 -0.009533519 -0.074613914 1.8614668 -0.10489045 0.11270893 0.94513893 -2.2975578
-1.5649897 0.45491323 -0.5199919 -1.4651539 0.041920554 -0.028973727 0.5523725 -0.8204252
-0.92960936 0.29077134 0.4088061 1.819204 -0.23155335 0.25265014 -1.0748825 0.2635551
0.022530688 -0.13027944 -0.05766673 0.15684175 -0.37578872 1.1157601 -0.13393664 0.51853067
-1.3326526 0.3617392 0.30393076 -1.1807371 0.76867014 -0.33309156 -0.8796541 6.3507924
-0.17323382 -2.611459 0.9043019 0.42798257 0.21843973 -3.4920838 -0.90447044 -0.2504617
-0.18714574 -0.51808846 -0.19700673 0.3352335 0.51410735 -1.473132 -0.21335755 -0.42108497
1.7993587 1.12495 0.6512314 -0.107792005 0.9310945 0.39626452 0.5717287 0.088395126
-0.5091041 -1.2064639 -0.50279564 -0.56642765 0.34121004 0.4798243 -0.18201166 0.14541353
0.40376565 -0.46963403 0.32263273 0.33723748 -1.3202002 -0.52117467 0.03782584 -0.111238755
-0.3067686 2.438046 0.14523572 0.18158983 -1.9399687 1.1374347 -0.0031385608 1.2663801
-0.53343475 -0.44343176 -1.9510202 0.3346991 -3.8828857 0.11327748 -0.8563989 0.28056985
0.28949368 2.9158435 2.1101005 -0.33443594 0.34382808 -1.1962807 -0.3263283 0.063866094
-0.16779245 -0.062968366 0.015672492 -0.47277898 2.1986673 0.10500485 -0.37857056 0.49303377
-0.06532096 -0.4372069 0.4704902 1.0333475 0.41642055 -0.9054669 -0.12267236 -0.22826248
0.9622145 1.7940896 0.0441446 -0.35260782 0.38254967 0.7406944 0.5171117 -0.12972105
-0.6493733 -0.5326803 -0.44331342 -0.58845663 0.053570833 0.22958189 -0.21672116 -0.027568031
0.92962295 -0.7803706 0.3956721 0.10776582 -0.45354342 -0.4631233 -0.31278098 -0.81669205

layers.4.bias f4 [16]
00000000: 03a9 d93d 1820 2f3e 09d8 1cbf a04d febe
00000010: a9c0 763f a8e6 1d3e edcf 943d 8f3c 83bd
00000020: f4b7 b6bd c928 11bf 5392 61bf 47db adbe
00000030: 0c9f c53e 2a30 db3d 0f57 8d3c b6c1 fd3d
0.106279396 0.17102087 -0.61267143 -0.49668598 0.96387726 0.1542002 0.07266221 -0.06408035
-0.08921805 -0.5670286 -0.881139 -0.33956358 0.38597906 0.10702546 0.017253427 0.12390463

layers.6.weight f4 [1, 16]
00000000: b781 2340 4c4e 4dc0 a745 28c0 b746 2fc0
00000010: 0948 2340 1c26 2d40 ff15 1ec0 e487 3040
00000020: 0119 1fc0 57d7 1fc0 ef99 1ec0 2f01 25c0
00000030: eb3b 4a40 bc73 0ec1 a0ca 31c0 e50d 1e40
2.5547922 -3.2079039 -2.6292512 -2.738691 2.5512717 2.705451 -2.4700925 2.758294
-2.485901 -2.4975183 -2.4781454 -2.5781972 3.159907 -8.903255 -2.7779922 2.469598
