resources/ETG/ac2f10ms.onnx (onnx, 9826 bytes, 7 tensors)

layers.0.weight f4 [16, 4]
0	0xbf131e9e	-0.57468593
1	0xbd487368	-0.048938185
2	0x3e661cfa	0.22471991
3	0xbe3eca1e	-0.18631789
4	0xbe612777	-0.21987711
5	0xbf27adda	-0.6549965
6	0xbde3e5e7	-0.11127835
7	0x3df66830	0.12031591
8	0xbfca4587	-1.5802468
9	0xbeea09f0	-0.45710707
10	0x3e3d4b5d	0.1848578
11	0xbdbcc675	-0.0921754
12	0xbf59ba75	-0.85050136
13	0x3f64b1b8	0.8933368
14	0xbe7fc0b7	-0.24975859
15	0x3d93808e	0.07202254
16	0x3f2d2a96	0.67643106
17	0x3f0eb61c	0.55746627
18	0xbda00102	-0.07812692
19	0x3d4fd3b8	0.05073902
20	0x3f72a981	0.9478989
21	0xbf8958bc	-1.0730205
22	0x3d94a3a3	0.07257774
23	0x3c43751a	0.011929775
24	0xbf693a75	-0.91104823
25	0xbf82c8f9	-1.0217582
26	0x3cb58f28	0.022162989
27	0xbd1088d3	-0.035286736
28	0xbf609f54	-0.87743115
29	0xbf58fae4	-0.8475783
30	0xbbe12611	-0.006870993
31	0x3c8279d7	0.015927238
32	0xbf2e8d5d	-0.68184453
33	0x3f5a3c08	0.8524785
34	0x3c8bfed1	0.01708928
35	0x3d30875b	0.043097835
36	0x3ef90a50	0.4864068
37	0x3fcd0dca	1.6019833
38	0xbe790281	-0.24317361
39	0x3e589cf3	0.21153621
40	0xbf82d50a	-1.0221264
41	0x3f75b54b	0.95979756
42	0x3e1b6a6d	0.15177317
43	0xbd2e92eb	-0.04262058
44	0xbf893983	-1.0720676
45	0x3fb2b7d4	1.396235
46	0xbe151fe7	-0.14562951
47	0x3d8e96b3	0.06962337
48	0xbf3ccf36	-0.7375368
49	0xbf0e2247	-0.55521053
50	0x3c8b7bc9	0.017026799
51	0xbc3f8284	-0.011688832
52	0x3e4d7648	0.20064652
53	0x3f50b535	0.815265
54	0xbc7a6950	-0.0152838975
55	0xbd011a90	-0.031519473
56	0x3d9e9045	0.07742361
57	0x3f415125	0.7551444
58	0xbca52086	-0.02015711
59	0xbd877f74	-0.06616107
60	0x3ee9a8f5	0.45636716
61	0xbf63f1f5	-0.8904107
62	0xbc5f9533	-0.013646412
63	0x3e012a06	0.12613687

layers.0.bias f4 [16]
0	0x3ec67df2	0.38767964
1	0x3e05eb24	0.1307798
2	0xbe8e309d	-0.27771464
3	0x3dfb9816	0.122848675
4	0xbe9654d0	-0.29361582
5	0x3dabca51	0.08388198
6	0xbbfb61bc	-0.007671563
7	0x3e664757	0.22488151
8	0x3e87677d	0.26446143
9	0x3d33776a	0.043815054
10	0xbd0a0f0a	-0.03370575
11	0xbaf23aa7	-0.0018480615
12	0x3e8ed2b6	0.27895135
13	0x3e3bd5f5	0.18343337
14	0x3d9d6215	0.07684723
15	0x3e8ea2d1	0.27858594

layers.2.weight f4 [32, 16]
0	0xbf0df844	-0.5545695
1	0xbd50325d	-0.05082928
2	0x3dcdd126	0.100496575
3	0x3eb2051f	0.34769532
4	0x3f5a5173	0.8528053
5	0xbe9a6704	-0.3015672
6	0xbecb43c0	-0.39700127
7	0xbf3b1cd3	-0.7309086
8	0xbeab80c5	-0.3349668
9	0x3f477933	0.7791931
10	0xbce1714b	-0.027519843
11	0x3ecd95c1	0.40153316
12	0xbf23c51d	-0.63972646
13	0x3d806f51	0.06271232
14	0x3e8c6ecf	0.2742829
15	0xbec3c1e9	-0.3823388
16	0xbf1e25e5	-0.6177657
17	0x3ebdaa34	0.37043917
18	0xbdaa43b6	-0.08313696
19	0x3dad142c	0.08451113
20	0x3e1fabb9	0.1559285
21	0x3eb6d2bb	0.3570765
22	0x3ec64661	0.3872557
23	0x3e3ab1d8	0.18231905
24	0xbe360b01	-0.17777635
25	0x3e7f3e06	0.24926004
26	0xbf15ccc5	-0.5851558
27	0xbe3b609d	-0.18298574
28	0x3dfc61f0	0.123233676
29	0xbeb089e6	-0.34480208
30	0x3e04e740	0.1297884
31	0x3f2951ab	0.6614024
32	0x3f157542	0.58382046
33	0xbea5f488	-0.32413125
34	0xbe7caee9	-0.24676098
35	0xbcabe22a	-0.020981867
36	0xbd216f53	-0.039412808
37	0xbe98e254	-0.29860175
38	0xbebe10fd	-0.37122336
39	0xbdd94687	-0.10609155
40	0x3e8479ea	0.25874263
41	0x3def7610	0.116924405
42	0x3e5f7ab0	0.21824145
43	0x3d91c7ee	0.07118212
44	0xbe357ac3	-0.17722611
45	0x3f11f0c9	0.57008034
46	0x3e8a858b	0.2705501
47	0xbe9cf617	-0.30656502
48	0x3f168f16	0.5881208
49	0x3e016c9b	0.12639086
50	0xbe841861	-0.2579985
51	0xbeade399	-0.33962706
52	0xbf76448f	-0.9619836
53	0x3f2f7d6e	0.68550766
54	0x3e337789	0.17526068
55	0x3f33d324	0.7024405
56	0x3e40b3b5	0.18818553
57	0xbe8b77a7	-0.27239725
58	0xbe9d22c9	-0.306906
59	0xbf2b0cc0	-0.6681633
60	0x3f4159e8	0.7552781
61	0x3e24f80a	0.16110244
62	0xbe6ee8c9	-0.23330988
63	0x3ea3dfa2	0.32006556
64	0xbed17492	-0.4090925
65	0xbd1d009d	-0.038330663
66	0x3f5e8a25	0.8692954
67	0xbe60e65b	-0.21962874
68	0xbd9e681e	-0.077347025
69	0x3eacdd83	0.3376275
70	0x3ee6cc3e	0.450777
71	0x3e6dd1cf	0.23224567
72	0xbece2f9b	-0.40270695
73	0xbe903ede	-0.28172964
74	0xbdc95ad8	-0.0983178
75	0xbe2bb144	-0.1676684
76	0x3e516e60	0.20452261
77	0xbf0fcc65	-0.56171256
78	0xbe7fd36f	-0.24983
79	0xbd4b7042	-0.049667604
80	0xbe196453	-0.14979677
81	0xbe9f7f6d	-0.31151906
82	0x3dd50762	0.10401799
83	0x3e58645a	0.21132031
84	0x3f3ca3ae	0.73687255
85	0xbef7ada0	-0.48374653
86	0xbeadbe3b	-0.33934197
87	0xbf2db1a7	-0.678492
88	0x3dddd8ef	0.108323924
89	0x3de057f1	0.109542735
90	0x3f262b65	0.64909965
91	0x3edefcf7	0.43552372
92	0xbf295801	-0.6614991
93	0x3df708c3	0.12062218
94	0x3e9e62a7	0.3093464
95	0xbda6bbab	-0.081412636
96	0xbf203066	-0.6257385
97	0x3eb0700a	0.3446048
98	0x3e54aa5b	0.2076811
99	0xbc1da775	-0.009622444
100	0xb9f0bbb7	-0.00045916226
101	0x3eaceaf0	0.33772993
102	0x3e97d4a8	0.2965443
103	0x3e3670a8	0.17816412
104	0xbeaf873e	-0.3428287
105	0xbdddb927	-0.10826331
106	0xbe841989	-0.25800732
107	0xbce346db	-0.027743747
108	0x3e5e1d3e	0.21690843
109	0xbf2d99a2	-0.6781255
110	0xbe365edb	-0.17809622
111	0x3e8d31ad	0.27576962
112	0x3e087597	0.13326107
113	0x3e09fa72	0.13474444
114	0xbee3a790	-0.44463778
115	0xbefcc9d2	-0.49372727
116	0xbf208e17	-0.6271681
117	0x3f5977fc	0.84948707
118	0x3e382d48	0.17986023
119	0x3ee5a6ac	0.44853723
120	0x3dfd5570	0.123698115
121	0xbdc6b057	-0.09701603
122	0xbf15b27d	-0.58475477
123	0xbf542d7f	-0.8288192
124	0x3ef673d0	0.48135233
125	0x3c8af02b	0.016960224
126	0xbed31572	-0.412273
127	0x3e269b2f	0.16270135
128	0xbe3c71c7	-0.18402778
129	0x3f8bcc6d	1.0921761
130	0xbf1dfe0c	-0.6171577
131	0xbe020691	-0.12697817
132	0xbe286197	-0.16443478
133	0x3ead2d79	0.33823755
134	0x3c9ea805	0.019367227
135	0x3ecaae55	0.3958613
136	0xbdb98ab7	-0.09059661
137	0x3e80030d	0.25002328
138	0xbf524172	-0.8213111
139	0xbebc9a22	-0.36836344
140	0x3ed5a83a	0.4172991
141	0xbe07b233	-0.13251571
142	0xbf3d36f7	-0.73911995
143	0x3e8785d4	0.2646929
144	0x3ebdda6e	0.3708071
145	0x3ea436e8	0.3207314
146	0xbea86aea	-0.3289407
147	0xbecb80b2	-0.39746624
148	0xbf8f1275	-1.1177508
149	0x3f4da13a	0.8032414
150	0x3e464c60	0.19365072
151	0x3f4c8bf1	0.79901034
152	0x3dc9fe5a	0.09862967
153	0xbe278bd0	-0.16361928
154	0xbec2297c	-0.37922275
155	0xbf297b6f	-0.6620397
156	0x3f6a53de	0.9153422
157	0x3ddca87d	0.10774324
158	0xbeb14b5d	-0.3462781
159	0x3e835a97	0.25655052
160	0xbddb6771	-0.10713089
161	0xbea3f9ef	-0.32026622
162	0x3e79c6a0	0.24392176
163	0x3e9f0867	0.31061098
164	0x3ee5706f	0.44812343
165	0xbf1f712a	-0.6228205
166	0xbdd5ada0	-0.10433507
167	0xbec1f7bd	-0.37884322
168	0x3dbe0bc0	0.09279585
169	0xbc86f8bd	-0.01647603
170	0x3f51f03b	0.8200719
171	0x3f101a3f	0.5629005
172	0xbf07669f	-0.5289096
173	0xbcb6eaa0	-0.022328675
174	0x3ec41c45	0.38302818
175	0xbdb7b455	-0.089699425
176	0x3e9fc683	0.3120614
177	0x3e5ed2ba	0.21760073
178	0xbd8c150f	-0.06839954
179	0xbeb8e76d	-0.36114064
180	0xbf50f187	-0.8161854
181	0x3de348ca	0.11097868
182	0x3efea113	0.49732265
183	0x3f50a535	0.81502086
184	0x3bd17412	0.0063920105
185	0xbe606101	-0.21912004
186	0xbe70332e	-0.23457024
187	0xbef9cb34	-0.48787844
188	0x3f3c39e6	0.73525846
189	0xbae102e2	-0.0017166997
190	0xbea13d02	-0.31491858
191	0xbd83c516	-0.064340755
192	0xbeae6f9a	-0.3406952
193	0x3f0ed87a	0.5579907
194	0x3e4caac5	0.19987018
195	0xbe23d0d4	-0.1599763
196	0xbeb50123	-0.3535243
197	0x3d959ac9	0.073049136
198	0x3f0bd909	0.54628044
199	0x3f114368	0.5674348
200	0x3e334684	0.17507368
201	0x3efa8133	0.48926696
202	0x3df4a66d	0.11945806
203	0xbe9cec35	-0.30648962
204	0x3ecc6865	0.39923397
205	0xbecdb26e	-0.40175194
206	0xbf0bb82a	-0.5457789
207	0x3eada8c5	0.33917823
208	0xbd312b41	-0.04325414
209	0x3f2e7850	0.6815233
210	0xbe56bcc3	-0.20970444
211	0xbf038ac0	-0.5138359
212	0xbdbdaa87	-0.09261041
213	0x3ec345f1	0.381393
214	0x3d9d66d7	0.07685631
215	0x3e4c45b6	0.19948468
216	0xbe12662f	-0.14296792
217	0xbd98c324	-0.07459095
218	0xbea5b490	-0.3236432
219	0xbf7324a3	-0.9497778
220	0x3dafe401	0.0858841
221	0xbf3628cc	-0.71156
222	0xbf7fe562	-0.99959385
223	0x3e18c36e	0.149183
224	0xbe659c0f	-0.22422813
225	0xbebf905b	-0.37414822
226	0xbfa71eff	-1.3056334
227	0xbdba6def	-0.091029994
228	0x3e403868	0.18771517
229	0xbf265692	-0.64975846
230	0xbf285202	-0.65750134
231	0xbf07992c	-0.52968097
232	0x3f808925	1.0041853
233	0x3f8e174f	1.1100863
234	0x3e89a99b	0.2688721
235	0x3f21ed41	0.63252646
236	0xbea705de	-0.32621664
237	0x3f8cec48	1.1009607
238	0x3f0e9d1e	0.5570849
239	0xbe2ca225	-0.16858728
240	0xbec52bba	-0.38509923
241	0x3d7e8d34	0.06214638
242	0x3f5b4bc1	0.85662466
243	0xbe89dfb3	-0.2692848
244	0xbd4f05a6	-0.050542496
245	0x3ec83a94	0.39107192
246	0x3edea4b7	0.43485042
247	0x3e8ec638	0.27885604
248	0xbe68d99f	-0.22739266
249	0xbdcfa11b	-0.1013815
250	0x3d874060	0.066040754
251	0xbdc3c042	-0.09558155
252	0x3e42fef0	0.19042563
253	0xbf0816e0	-0.53159904
254	0xbe3033db	-0.17207281
255	0xbd217691	-0.039419714

layers.2.bias f4 [32]
0	0xbd583f19	-0.05279455
1	0xbe788905	-0.24271019
2	0x3eac80e2	0.3369208
3	0x3deb3ca7	0.11486178
4	0xbecccde8	-0.40000844
5	0xbda295d6	-0.07938735
6	0xbea94bb4	-0.3306557
7	0x3d841f21	0.0645125
8	0x3c9779df	0.01849073
9	0x3e5dc864	0.21658474
10	0xbc2b6c0c	-0.010462772
11	0x3dba25f1	0.09089268
12	0xbe42b65c	-0.19014877
13	0xbe9e3e95	-0.3090712
14	0x3e8f436c	0.27981126
15	0xbec9e345	-0.39431205
16	0xbdf1a828	-0.117996514
17	0xbea9974a	-0.33123237
18	0x3eb32fe7	0.34997484
19	0xbe9bfe1d	-0.3046731
20	0xbe9b049d	-0.30276957
21	0x3e8cba70	0.2748599
22	0x3e819ab1	0.25313333
23	0xbd64d005	-0.055862445
24	0xbe953ebb	-0.29149422
25	0xbe7939e3	-0.24338488
26	0x3e5e0fac	0.21685666
27	0xbefedeba	-0.49779302
28	0xbd73abf5	-0.059490163
29	0x3e40629d	0.18787618
30	0xbdf58568	-0.11988336
31	0x3eb4f347	0.35341856

layers.4.weight f4 [16, 32]
0	0x3de5852c	0.11207041
1	0xbf88948e	-1.0670335
2	0x3f01cf36	0.50706804
3	0xbe9e068f	-0.3086438
4	0xbf014b97	-0.50505966
5	0x3eae2e11	0.3401952
6	0xbf01e688	-0.5074239
7	0xbeadcc3c	-0.3394488
8	0xbd1cad8d	-0.03825145
9	0xbea64549	-0.32474735
10	0x3ea3922d	0.3194746
11	0xbe3d5868	-0.18490756
12	0xbf198b6e	-0.5997838
13	0xbe03aec2	-0.12859634
14	0x3fe292cf	1.7701052
15	0xbeed790b	-0.4638141
16	0xbf9f1196	-1.2427242
17	0xbf1632f6	-0.5867151
18	0x3f8e203a	1.1103585
19	0x3e9a2c51	0.30111936
20	0xbf40cf9b	-0.7531678
21	0xbea046a0	-0.31303883
22	0x3f8ab675	1.0836931
23	0x3fe6d32a	1.8033192
24	0x3ea628dd	0.3245305
25	0x3ecf222c	0.4045576
26	0x3fcf794e	1.6208894
27	0x3e7393fc	0.2378692
28	0xbee81512	-0.45328575
29	0xbeb35284	-0.35023892
30	0xbf065280	-0.52469635
31	0x3f6569d0	0.8961458
32	0xbf428d06	-0.75996435
33	0x3ecc1f76	0.39867753
34	0xbe976487	-0.29568884
35	0x3f1b8859	0.60754925
36	0x3e78caae	0.24296066
37	0xbf5a7d1f	-0.8534717
38	0x3e871e01	0.2639008
39	0x3f1f14e8	0.62141275
40	0x3f40e84c	0.75354457
41	0x3f0fcc3a	0.56171
42	0xbf743821	-0.95398146
43	0x3f91dc77	1.1395406
44	0x3f141e48	0.57858706
45	0x3f4deb8b	0.80437535
46	0x3d8ee300	0.069768906
47	0x3e963e84	0.2934457
48	0xbd8deb44	-0.06929639
49	0x3ebc5f73	0.36791572
50	0xbda7443b	-0.08167311
51	0xbf1f0b29	-0.62126404
52	0x3e82a4ed	0.25516453
53	0x3f3035c2	0.6883203
54	0xbe3696a5	-0.17830904
55	0xbf7cea7e	-0.98795307
56	0xbf277214	-0.65408444
57	0xbf038e1f	-0.51388735
58	0xbf92c451	-1.1466161
59	0x3e6211bf	0.22077082
60	0xbea5a235	-0.32350317
61	0x3f35bc12	0.709901
62	0x3ecd5c8d	0.40109673
63	0xbece7a40	-0.40327644
64	0x3f4d5a4e	0.8021592
65	0x3de256c0	0.110517025
66	0x3daadf6c	0.083433956
67	0xbfc9ef14	-1.5776086
68	0xbd6c1db2	-0.057645507
69	0x3fa92cdb	1.3216814
70	0x3d8c19fd	0.06840894
71	0xbfd53486	-1.6656654
72	0xc00e9167	-2.2276247
73	0xbfd4eccf	-1.6634768
74	0x40088634	2.133191
75	0xbf3b59a3	-0.7318365
76	0xbef10cd7	-0.4708011
77	0xbf028e79	-0.50998646
78	0xbc62307d	-0.013805506
79	0xbe36b1a7	-0.17841206
80	0xbd5e876d	-0.05432837
81	0xbd8a0f74	-0.06741229
82	0xbde6b5c5	-0.112651385
83	0x3fdd454e	1.7286775
84	0xbd4fc0b3	-0.05072088
85	0xc0185bba	-2.3805985
86	0x3cab85f0	0.02093789
87	0x3eb84395	0.3598906
88	0x4010a9c6	2.2603621
89	0x40092b24	2.143258
90	0x3f20b1fa	0.6277157
91	0x3e2ca38f	0.16859268
92	0x3e982245	0.29713646
93	0xc00afc57	-2.1716516
94	0xbe493931	-0.19650723
95	0x3e74f0ff	0.23920058
96	0x3f65f2dd	0.89823705
97	0xbe8508b7	-0.2598321
98	0x3ecb8aa6	0.39754218
99	0xbf09db46	-0.5385021
100	0xbebd64aa	-0.36990863
101	0x3f2cce44	0.67502236
102	0xbebb64d9	-0.36600378
103	0xbedfe50e	-0.43729442
104	0xbf0cc246	-0.5498394
105	0xbee58453	-0.44827518
106	0x3f418032	0.75586236
107	0xbf1e32ba	-0.6179615
108	0xbf3e7b01	-0.7440644
109	0xbf665a06	-0.89981115
110	0x3eda034d	0.42580643
111	0xbeb1e70c	-0.34746587
112	0xbe5bd51e	-0.21468017
113	0xbec23202	-0.37928778
114	0x3ef07456	0.46963757
115	0x3eb83412	0.35977226
116	0xbe8a109f	-0.26965806
117	0xbe1a3178	-0.15057933
118	0x3f0993d1	0.53741175
119	0x3f9cdac2	1.225426
120	0x3eb6431f	0.35598084
121	0x3e9c1785	0.30486694
122	0x3f8dd21f	1.1079749
123	0xbedf59ea	-0.43623286
124	0x3fe53194	1.7905755
125	0xbef5962f	-0.47966143
126	0xbf705a65	-0.9388793
127	0x3eabaf61	0.3353224
128	0xbf4ac961	-0.7921353
129	0x3e59d2d0	0.21271825
130	0xbe0b8e20	-0.13628435
131	0x3f46e49c	0.7769258
132	0x3e34f5a0	0.17671824
133	0xbf985683	-1.1901401
134	0x3ddfdb95	0.10930554
135	0x3f69e309	0.91362053
136	0x3f85879e	1.0432012
137	0x3f65c6ac	0.89756274
138	0xbfa807af	-1.3127345
139	0x3fa7a54e	1.3097322
140	0x3f3a7303	0.72831744
141	0x3f3e30bd	0.7429312
142	0xbd541d74	-0.0517859
143	0x3e7486a7	0.23879491
144	0x3e322f2f	0.17400812
145	0x3e944365	0.28957668
146	0xbd42de91	-0.047575537
147	0xbf69b154	-0.91286206
148	0x3e626ca4	0.22111756
149	0x3f8ed8c4	1.1159902
150	0xbe6463fc	-0.22303766
151	0xbf2bdf86	-0.67137945
152	0xbf819ac3	-1.0125355
153	0xbf30c4c8	-0.69050264
154	0xbf5cef60	-0.8630276
155	0x3f5428da	0.82874835
156	0xbdbb3c35	-0.09142343
157	0x3f7bc5d6	0.9834875
158	0x3c11eaa0	0.008906037
159	0xbe8cb9c1	-0.2748547
160	0xbf3f2567	-0.74666446
161	0x3e96a509	0.29422787
162	0xbe1c9b9d	-0.15293737
163	0x3f6ca570	0.9243994
164	0x3d210240	0.039308786
165	0xbfb0efca	-1.3823178
166	0x3d84b9c9	0.06480748
167	0x3fb2fbf7	1.3983144
168	0x3fbc1b66	1.4695861
169	0x3f9113bf	1.1334151
170	0xc013fa53	-2.3121536
171	0x3f902b25	1.1263167
172	0x3f0ecc59	0.5578056
173	0x3f541b71	0.8285437
174	0x3d6e3b3f	0.05816197
175	0x3e6c89e6	0.23099479
176	0xbd453a3e	-0.048151247
177	0x3e2c5487	0.1682912
178	0x3d448145	0.047974844
179	0xbf803a98	-1.0017881
180	0x3dda7d05	0.10668377
181	0x3fbaa271	1.4580823
182	0xbe083465	-0.13301237
183	0xbf3d27e9	-0.73889023
184	0xbfb1a7e0	-1.3879356
185	0xbf84b386	-1.0367286
186	0xbf8a0f6b	-1.0785955
187	0x3e90c008	0.28271508
188	0xbe3aa61d	-0.1822743
189	0x3f8ee7a2	1.1164439
190	0x3dc142f6	0.094366
191	0xbe77a783	-0.24184994
192	0xbd2b61d7	-0.041841354
193	0x3f9da84f	1.2316989
194	0xbf46db9b	-0.7767884
195	0x3db22798	0.08698958
196	0x3f6335e0	0.8875408
197	0xbe643b32	-0.22288206
198	0x3f72b416	0.9480604
199	0x3ddd3629	0.10801346
200	0x3eea0ab4	0.4571129
201	0x3e15c6f7	0.1462668
202	0xbe8137e4	-0.25237954
203	0x3e80af32	0.25133663
204	0x3f6ca100	0.92433167
205	0x3f3ec766	0.7452301
206	0xc027f904	-2.6245737
207	0x3f714f84	0.94261956
208	0x3f41839d	0.7559145
209	0x3f73af29	0.9518915
210	0xbfb2df3b	-1.3974375
211	0xbe2f873b	-0.1714143
212	0x3f3dbf59	0.741201
213	0x3e0ce973	0.13760929
214	0xbfd652cc	-1.6744018
215	0xbf791af5	-0.9730676
216	0xbe665276	-0.22492394
217	0xbdef56ea	-0.116864994
218	0xc0026717	-2.037542
219	0x3f3ab023	0.72925013
220	0x3e3fd7ee	0.18734714
221	0x3e3ba010	0.18322778
222	0x3e4380cf	0.19092105
223	0xbf534938	-0.825336
224	0xbc8d7479	-0.017267453
225	0x3f853c97	1.0409116
226	0xbec2a902	-0.38019568
227	0x3e0ea83c	0.13931364
228	0x3ed5b6ee	0.41741127
229	0xbe8ee8e1	-0.27912048
230	0x3eb1063e	0.34575075
231	0x3e4ac3b8	0.19801223
232	0x3e08a177	0.13342844
233	0x3e151b7c	0.14561266
234	0xbe47957e	-0.1949062
235	0x3e4ebcbe	0.20189187
236	0x3fc0233e	1.5010755
237	0xbe78b1d1	-0.24286582
238	0xbf588c33	-0.8458893
239	0x3ee4c8d7	0.4468448
240	0x40001919	2.0015318
241	0x3f2178d4	0.63074994
242	0xbead31e5	-0.3382713
243	0xbde39e87	-0.11114221
244	0x3f0ad2b1	0.5422774
245	0x3ebb37c1	0.36565974
246	0xbea4d8af	-0.32196566
247	0xc010a32a	-2.2599587
248	0xbe6f38d4	-0.23361522
249	0xbea39e9e	-0.31956953
250	0xbf2a3808	-0.66491747
251	0xbf39b110	-0.725358
252	0x3f567f10	0.8378763
253	0x3e6e302e	0.23260567
254	0x3f7ef5fd	0.995941
255	0xbf5a5b23	-0.85295314

layers.4.bias f4 [16]
0	0x3e1abb84	0.15110594
1	0xbe491d0c	-0.19639987
2	0xbd8d5a9a	-0.069020465
3	0x3eace5d7	0.33769104
4	0x3b54c1de	0.0032464187
5	0x3dd950ea	0.10611136
6	0xbece7ee2	-0.4033118
7	0xbe87b5e2	-0.26505953
8	0xbedf105a	-0.43567163
9	0x3e9f81b3	0.3115364
10	0xbf01c29d	-0.5068758
11	0x3e8c9454	0.27456915
12	0xbe96a0ec	-0.2941965
13	0xbecb553d	-0.3971347
14	0x3f14b396	0.58086526
15	0x3eafd28e	0.34340328

layers.6.weight f4 [1, 16]
0	0x400f0e26	2.2352386
1	0xc023cb2c	-2.5592756
2	0x400f945f	2.2434309
3	0x401e182c	2.4702253
4	0xc0221b6e	-2.5329242
5	0xc01a4d5b	-2.4109714
6	0xc01e12f4	-2.4699068
7	0xc01683da	-2.3517976
8	0xc03a4273	-2.9103057
9	0xc00f0ba6	-2.235086
10	0xc01be687	-2.4359453
11	0x3fc0cf25	1.5063215
12	0xc02b57b5	-2.6772282
13	0xc01e1762	-2.4701772
14	0x4017ade7	2.3699892
15	0x401e1652	2.4701123
