resources/ETG/actuator_net.pt (torch, 11983 bytes, 7 tensors)

layers.0.weight f4 [32, 6]
000000 54 3a 81 3d 11 ba 31 3f 5d c2 4a bf e3 56 27 3e
       0.06309953 0.6942454 -0.79202825 0.16341738
000010 8e 00 2a be 94 ad 37 3c ff fe c2 3e 17 fe c1 3e
       -0.16601774 0.011210818 0.38085172 0.37889168
000020 ae ef c6 3d 2b 44 18 b9 78 ca 30 3d 6a a1 82 3c
       0.09713684 -0.00014521244 0.04316184 0.015946109
000030 a2 72 81 bd a2 26 07 be c0 aa 88 bf 24 f3 67 3d
       -0.063206926 -0.13198331 -1.0677109 0.05662836
000040 74 c5 9e bc 7e ef 40 3c f6 ce 5a 3e 34 f9 3a 3f
       -0.019381262 0.011775849 0.21368012 0.73036504
000050 61 d9 0b bf d2 3c ca 3c 17 77 96 3c 3f 91 17 bd
       -0.5462857 0.024687205 0.018367333 -0.03700375
000060 5b 6a 8d 3e b1 cc 84 bf 53 2d a1 3f 38 62 8d 3e
       0.27620205 -1.0374967 1.2591957 0.27613997
000070 4e 4b 65 be 18 63 64 bd 7a b1 e3 be 24 30 a7 3d
       -0.22392008 -0.055758566 -0.4447134 0.08163479
000080 01 4e 83 3f 68 bd 87 bd 34 06 77 bc a6 de 89 bc
       1.025818 -0.06627923 -0.0150771625 -0.0168298
000090 27 a1 49 be 14 46 45 be 14 6f 96 3c f7 a0 ed 3e
       -0.19690381 -0.19265014 0.018363513 0.4641187
0000a0 46 d3 84 3d 81 54 8f be d5 fc e0 3c 94 f4 52 3e
       0.0648561 -0.2799416 0.02746431 0.20601112
0000b0 7f 5d 7a bd d2 cf 76 be df dd 75 3e e8 92 6f bc
       -0.06112432 -0.24102715 0.24010418 -0.0146224275
0000c0 b3 66 96 bd b5 2b 19 3f 15 e0 e5 bf e1 44 84 bd
       -0.07343807 0.59832317 -1.795901 -0.0645845
0000d0 c8 5d 4b 3b b1 45 57 3c b0 0e a1 3d 70 5b 3e bf
       0.003103124 0.013139174 0.078641295 -0.7435827
0000e0 a9 2a b6 3e fe 9d c9 3c 8d 12 f4 bc 1d 7a e1 3b
       0.35579422 0.02461147 -0.029794002 0.006881012
0000f0 57 9b 62 bf 52 03 9d bf f4 23 d4 3f b4 a3 7b 3d
       -0.8851828 -1.2266638 1.6573472 0.061435416
000100 b4 e7 5c be e5 bf a6 bc 04 75 26 bd d2 2d 47 bd
       -0.21572763 -0.020355174 -0.04063894 -0.048627682
000110 cd 2f 4e bf ef e5 3b bd 9e 98 3a 3e de e1 2a bd
       -0.8054169 -0.04587358 0.18222281 -0.04171931
000120 67 dd 87 bd 78 a2 84 3e bd 59 5b bf f1 db 26 3d
       -0.06634026 0.25905204 -0.85683805 0.040737096
000130 d9 ae 95 bc 00 a0 ac bb 73 14 fc 3e 27 2b 97 be
       -0.01827185 -0.005268097 0.49234352 -0.2952511
000140 ba ee 95 3e 00 83 f6 3d f1 9b c8 be 1f 08 b0 3e
       0.29283696 0.12036705 -0.39181474 0.34381196
000150 79 d0 42 3e d7 c6 82 be dd e4 ed 3f a8 83 25 3e
       0.19024839 -0.25542328 1.8585469 0.16163504
000160 67 ec 00 3c 9d 3f dc bc ad 92 ad be df c6 72 bf
       0.007868863 -0.026885802 -0.33900967 -0.94834703
000170 de 92 1f be fb 31 48 3d 74 b1 bd bc 50 90 0c 3b
       -0.15583369 0.04887579 -0.023155905 0.0021448322
000180 c0 35 27 bf fb 88 44 bf 54 98 ee 3b 33 4c 34 3d
       -0.6531639 -0.76771516 0.0072813425 0.04401798
000190 ed 33 d2 3d e4 38 10 3d 7e 36 80 be bf 23 22 3f
       0.1026381 0.035210505 -0.25041574 0.63335794
0001a0 06 93 50 3f a4 2d 1b bf ca 63 7d 3e 9b 1a fe 3c
       0.8147434 -0.6061652 0.24745098 0.031018546
0001b0 58 78 c2 3e e4 3f 3c bf 09 d6 4c be 16 ad 8d 3c
       0.3798244 -0.7353499 -0.20003523 0.017294448
0001c0 be cf ed 3c db b3 df bb 9e dd a7 be 1e c0 6e be
       0.029029723 -0.0068268604 -0.32786268 -0.23315474
0001d0 8d 18 ec 3d ea 4e 96 bd d8 cc f6 3c d6 f1 10 bc
       0.1152812 -0.073392704 0.030126974 -0.008846721
0001e0 0b 7f f2 3e 99 ea 9a 3e 6d d8 d7 bf 86 81 02 3e
       0.4736255 0.3025711 -1.6862923 0.12744722
0001f0 28 11 8e be b1 8a 1c be 85 57 1c 3f 1a 7d c4 bd
       -0.27747464 -0.15287282 0.61071044 -0.09594174
000200 d5 a6 a0 be 5c 50 08 be fe 73 4d 3d d4 29 13 3d
       -0.31377283 -0.13311905 0.050159447 0.035928562
000210 19 e9 bb 3d 07 9c c9 3f 4c 76 6c be ae 28 76 bc
       0.09175319 1.5750741 -0.23092002 -0.015024347
000220 83 f8 29 bd a0 a6 5a bc 9b e9 56 be 2b 2e c4 bc
       -0.041496765 -0.013345391 -0.20987551 -0.023947796
000230 be 37 a1 3f 6c df c0 be f0 55 01 ba 2d 9e 2c 3e
       1.2595136 -0.37670457 -0.0004933765 0.16857214
000240 65 8d f9 3e 11 7c bc bf a0 a1 83 3f 7c 18 9c 3c
       0.48740688 -1.4725362 1.0283699 0.019054644
000250 51 33 42 3e 31 04 58 be cc d3 9f bd 32 92 e4 be
       0.18964888 -0.21095349 -0.07804069 -0.44642788
000260 92 32 c5 3e 83 00 22 be 8c 67 49 bd 61 3e f8 3d
       0.38515145 -0.15820508 -0.049171016 0.12121273
000270 d8 a8 53 bf 1e 2f 8f 3e 4d 59 cc bf 13 c4 95 be
       -0.8267951 0.27965635 -1.5964752 -0.29251155
000280 b6 85 08 be 70 fa d4 bd b8 7d 1a be 12 ab d2 3e
       -0.13332257 -0.1039933 -0.1508702 0.4114614
000290 d2 6b 1a 3f d7 c5 46 bd fc 88 a1 bd 8c 20 24 bc
       0.6032077 -0.04852852 -0.07887456 -0.010017525
0002a0 93 a0 26 bf f7 c5 48 bf d2 e5 9e be bc 15 a4 3d
       -0.65088767 -0.7842707 -0.31034714 0.08011958
0002b0 74 5f 87 3c 2b 29 78 bc fd 83 d2 be 56 ed 8b bd
       0.016525008 -0.015146534 -0.41116324 -0.068323776
0002c0 b0 ad 1c 3f 29 e0 46 3f f6 86 eb be dc 26 64 bf
       0.61202526 0.7768579 -0.46001405 -0.89121795
0002d0 ca 4a 09 3e d9 fb e9 be aa 72 7f bf 97 66 e0 3d
       0.13407436 -0.45699957 -0.9978434 0.109570675
0002e0 14 97 8e bc c5 af 0d 3a e7 62 bb 3e 26 45 da 3d
       -0.017406024 0.0005404915 0.36598894 0.1065772
0002f0 23 e5 78 bf 5c 23 cd 3c fa 16 9d bb b8 ce 1f 3c
       -0.97224635 0.025041275 -0.004793999 0.009753875

layers.0.bias f4 [32]
000000 48 97 4d 3c b2 e2 71 be e6 49 53 3c c6 4f 1d 3a
       0.012548275 -0.23621634 0.012896037 0.0006000962
000010 c0 36 82 3e 0c d7 cd bd a7 b4 0f 3e 80 c3 9c bc
       0.25432396 -0.100507826 0.14033757 -0.01913619
000020 25 68 5e bc c2 3c 0a 3d c2 99 14 bf 28 8c 2b 3d
       -0.013574635 0.03374935 -0.58047116 0.04188171
000030 a6 25 2d bd 30 df 84 3e b5 11 40 be 3c ba 8c bb
       -0.042272232 0.2595153 -0.18756755 -0.004294662
000040 0a 87 f7 be 02 30 cb be 5f c9 31 bc 97 60 aa 3e
       -0.48345214 -0.39685065 -0.010851233 0.33276817
000050 58 68 2d bf 96 8f e4 3e bc df 98 3d 53 6e a0 3e
       -0.6773734 0.44640797 0.07464549 0.3133417
000060 68 2d 31 3d 57 50 89 bd 17 94 99 be 6f cc 94 3e
       0.043256193 -0.06704777 -0.29995796 0.2906222
000070 32 cc fd 3e 79 51 86 bd a4 85 a2 bc e8 b7 74 3e
       0.4956985 -0.065585084 -0.019839115 0.2389828

layers.2.weight f4 [32, 32]
000000 b1 9f 51 3e ee d1 17 be 42 f8 5a 3d db 09 af bc
       0.20471074 -0.14826176 0.053459413 -0.021367004
000010 ce de 8d be fc d2 57 be 7c 77 88 3d bd 5d ec bc
       -0.2770905 -0.21076578 0.06663415 -0.028853292
000020 63 c0 d4 3e af 70 e3 be 6e 49 94 bd 3d 71 41 3e
       0.4155303 -0.44421908 -0.07240568 0.18890853
000030 3c 37 81 3e 49 0c 17 be 84 5d b1 be d5 6b ac 3d
       0.25237453 -0.1475078 -0.3464166 0.08419005
000040 cd 27 f0 bd e2 cf 42 be 72 f0 06 bd e3 76 7a 3d
       -0.117263414 -0.19024613 -0.03294415 0.061148535
000050 c4 8a 1c be 8a 77 c9 bd 76 0c c8 3c 0b 71 b6 bd
       -0.1528731 -0.098372534 0.024420004 -0.0890828
000060 a0 64 4b be 88 a1 15 bd 95 8c 87 3d a9 48 4c 3d
       -0.19862604 -0.036531 0.06618611 0.04987398
000070 00 a7 bd bd 5c cd 65 bd 6e 73 ac 3e 2d 2a c6 bd
       -0.09260368 -0.05610405 0.33681816 -0.09676013
000080 ef 0b 5f 3d c6 bf 4f be 07 9c a5 bc 0a 4a 7d be
       0.05445474 -0.20288 -0.020216001 -0.24735275
000090 e5 f0 7d bd ef 80 ad be 09 1d 03 3c 42 49 69 3e
       -0.061997313 -0.3388743 0.008002528 0.22781852
0000a0 44 08 84 3e dd 87 58 3f bc f6 37 be 70 73 29 3e
       0.25787556 0.8458231 -0.17965215 0.16547942
0000b0 0e 11 a5 be 83 6a 68 3d 3c 30 73 be 94 15 78 3e
       -0.32239574 0.056742202 -0.23748869 0.24226981
0000c0 4f 71 74 be 42 96 9d 3b e0 bd f4 3e 41 0c 0e 3e
       -0.23871349 0.004809172 0.47801113 0.13871862
0000d0 69 f4 34 3d d8 36 fd 3d 66 2d ca bd 1d 9f 7e 3d
       0.0441784 0.12363976 -0.0987194 0.06216346
0000e0 97 9b 7f 3e a2 43 4e 3c d8 18 bf 3c f3 00 7b be
       0.24961697 0.012589367 0.023327276 -0.24512081
0000f0 19 6e d7 3e 04 61 a6 3c e7 12 1a 3e d1 eb 81 3e
       0.42076185 0.020309933 0.15046273 0.25375226
000100 fa d5 18 be 11 19 d9 3c eb f1 27 3f cb 58 54 3e
       -0.14925376 0.02650121 0.6560351 0.20736997
000110 a5 2e 86 be 7d 8b 98 be 4f c5 99 3e 37 5d 83 be
       -0.26207462 -0.2979392 0.30033347 -0.25657055
000120 de af a9 3e 27 fd 80 be 8e 48 e4 be 44 c5 39 3e
       0.3314199 -0.2519314 -0.44586605 0.18141657
000130 9d ed 4a 3e 92 00 87 3e c7 45 56 bc d2 83 3a be
       0.19817205 0.26367623 -0.01307816 -0.18214348
000140 70 f1 0e be 3f 42 de be 9b c7 fb 3d 35 f0 4d 3e
       -0.13959289 -0.43409917 0.12293931 0.20111163
000150 9a da 1a be db 46 ad 3e 48 56 9a 3e fe 3f 5f 3e
       -0.15122452 0.3384312 0.30143952 0.21801755
000160 42 98 2d 3d 9a db 0c 3e 90 2e 6d be 1f 3b bb 3c
       0.042381532 0.13755646 -0.23162293 0.02285534
000170 ba 2e 7b 3e 31 10 bd 3e 2d 34 e7 3d ef 02 97 3f
       0.24529544 0.36926416 0.112892486 1.179777
000180 e0 f1 9f 3c e7 f5 9d 3c 03 aa f0 3d cd 43 9c 3d
       0.019524515 0.019282294 0.11751177 0.076301195
000190 0c 8b 0f 3e fa 94 b4 3d fb 05 23 3d 6d 88 59 be
       0.14017886 0.088174775 0.039800625 -0.21243449
0001a0 d9 cc 77 3b 0d c9 a5 3d 07 c4 24 3e c3 4a 11 be
       0.0037811308 0.08094988 0.16090403 -0.14188676
0001b0 26 fd d1 bd 70 e7 43 3e 74 db 6a bd 4e 5d 33 be
       -0.10253362 0.19131255 -0.057338193 -0.17516062
0001c0 4e 17 44 be 7b 3a c6 bd e4 72 a2 bd 8d 12 7b 3d
       -0.19149515 -0.09679123 -0.0793207 0.06129699
0001d0 2c d6 be bd e1 56 75 3e 7d 15 51 3e e0 4e ea 3d
       -0.09318194 0.23958923 0.20418353 0.114408255
0001e0 bf 39 11 be 07 b9 05 3e 50 fb 57 bd 68 1e 5f 3d
       -0.14182185 0.13058864 -0.052729905 0.054472357
0001f0 c3 24 5a 3d cd 6f cc bd 51 fd 61 bd e2 ab 87 3e
       0.053257715 -0.09982262 -0.055173222 0.26498324
000200 0d 6b 81 be 08 fc a6 3c d8 7e bc be e7 94 63 3e
       -0.25276986 0.02038385 -0.36815524 0.2222477
000210 ed 2f f9 bc 79 93 04 3e a7 40 9a bd 67 12 b4 be
       -0.03041836 0.12946881 -0.07531863 -0.3517029
000220 0b 4a c5 3d 44 1f e9 be d3 35 73 bc da c4 94 be
       0.09633263 -0.45531666 -0.014844376 -0.29056436
000230 57 35 80 3c a5 bf be bd 94 00 03 be 07 07 0e be
       0.015650434 -0.09313897 -0.1279319 -0.13869868
000240 74 79 23 bd 77 bb de 3b 67 50 4a bf 00 1b 8f 3d
       -0.03991075 0.00679725 -0.79028934 0.06987572
000250 72 53 1d be bd b2 37 3e 0a f3 43 3e 36 79 b2 3e
       -0.15363863 0.17939277 0.19135681 0.34858102
000260 6f cb ec 3b 1d 35 1c 3e 29 c7 8d bd 8d cf b6 3e
       0.0072263996 0.15254636 -0.069227524 0.35705224
000270 b3 9c 8d bb e1 bc 09 3e 2e de 01 bf 8a 1f 75 3d
       -0.0043216585 0.13450958 -0.50729644 0.05984453
000280 cd 1e 9a 3d 30 bf f3 bd 5f 69 92 bd 6b 36 a0 be
       0.07525406 -0.119017005 -0.07149004 -0.31291518
000290 9d e4 17 3d 0c 25 6e be bf a1 6a 3e 43 f9 29 be
       0.037083257 -0.2325632 0.22913264 -0.16598992
0002a0 63 66 a6 be 1e 81 3e 3f 86 f6 f8 3d fb fa 4f bb
       -0.3249999 0.7441577 0.121563956 -0.003173529
0002b0 e8 bc 55 be 0e 62 08 3e 21 50 24 3e a3 0d 8f 3e
       -0.20872843 0.13318655 0.16046192 0.27940091
0002c0 4c 98 46 3e 4b f5 17 be 34 1b 34 3f c2 44 ab 3d
       0.19394034 -0.14839666 0.7035401 0.08362724
0002d0 4f 41 51 be 71 28 37 bc e3 48 f8 be e4 be 6c 3e
       -0.2043507 -0.011179076 -0.48493108 0.23119694
0002e0 8a 11 f2 3d 1c d2 5f 3d 6d f6 0b bd 27 d8 2f be
       0.118197516 0.054643735 -0.034170557 -0.171723
0002f0 0b df 8c 3e 04 bf 81 3d e9 02 34 3e d3 8d 7f bc
       0.27513918 0.063352615 0.17579235 -0.015597778
000300 44 8e d9 bc df 20 0a 3f 7e 94 9d 3e 80 6a 80 3e
       -0.026557095 0.5395641 0.30777353 0.25081253
000310 3c 4b 31 be c9 11 16 bd 27 53 13 3e cf 97 2f be
       -0.17313856 -0.036638055 0.14387189 -0.17147754
000320 ff 71 49 bd 90 de e1 be 88 d7 1e 3e f9 e2 95 3d
       -0.04918098 -0.44115114 0.15511906 0.07318682
000330 12 1f ba 3e ff 4f 1d 3e 0c 67 c2 3e 7c d0 3e be
       0.3635183 0.15362547 0.37969244 -0.18634218
000340 77 8c 9a bd 44 ec 90 be 87 a6 80 3e cf 03 31 bf
       -0.07546323 -0.28305256 0.2512705 -0.69146436
000350 ae aa 7a bd 44 6b 7d 3d 1b c7 8e 3d 22 93 da bd
       -0.06119793 0.061869875 0.0697157 -0.106725946
000360 63 fa 85 3e 66 e6 02 be 2c 3f a2 3c e9 df 31 be
       0.26167592 -0.12783203 0.019805513 -0.17370571
000370 45 cc fd be ab de 3b be 0a c8 c5 3e 7d 82 af 3a
       -0.49569908 -0.1834666 0.3862918 0.0013390329
000380 dd 2a 3d bf fc 50 90 bd f6 9e d4 bf ef f0 91 3e
       -0.7389353 -0.070466965 -1.6611011 0.2850413
000390 fe 73 e1 3c f6 a5 9a 3d 14 89 8b 3c 5e 0e db be
       0.02752113 0.07551186 0.017033137 -0.427844
0003a0 f3 a0 0f bf 37 32 87 3e b9 c6 37 3d dd 77 f9 be
       -0.56104964 0.26405498 0.04486725 -0.4872426
0003b0 cf d8 e1 be b1 f9 9b bc 53 b7 12 3e 70 76 a7 be
       -0.44110724 -0.01903996 0.14327745 -0.32707548
0003c0 23 26 1f bd ca 5d 21 be 18 dd 27 3e ca 37 3f 3d
       -0.03885473 -0.15758434 0.16392934 0.046684064
0003d0 c8 a5 50 be b8 e4 29 be d9 65 0a be 03 92 80 3e
       -0.2037574 -0.16591156 -0.13515414 0.25111398
0003e0 ac 6a d2 3d e1 4e cd 3d 45 48 b2 bc 9d cf c0 3e
       0.10274252 0.100248106 -0.021762976 0.37658396
0003f0 01 bc a1 be 94 d6 ef 3d 7a ce 35 bf 60 65 6a be
       -0.31588748 0.117108494 -0.71018183 -0.22890234

layers.2.bias f4 [32]
000000 cb a6 ab bd 97 47 cd 3d 79 28 88 3e 42 a2 36 3e
       -0.083814226 0.1002342 0.26593378 0.17835334
000010 92 96 bb 3d 15 7c 87 bd 1a 95 eb bd 7d 56 f9 bd
       0.091595784 -0.06615464 -0.11503048 -0.121746995
000020 14 6e 85 be 00 93 e3 3d c7 ea 1d 3e b4 3e c8 3c
       -0.26060545 0.111120224 0.15421592 0.024443962
000030 9a a1 4c 3a e2 32 90 bd fa ed a7 be 79 d1 2c 3e
       0.0007806063 -0.07040955 -0.3279875 0.16876782
000040 a9 76 2d be 09 9a 4b be 6a 6f b5 3d 77 44 ac bd
       -0.16939797 -0.19882978 0.08859141 -0.08411496
000050 75 7f c1 be f1 d8 45 be d8 cd 22 3e 2c 9e 03 3e
       -0.37792554 -0.19321038 0.15898836 0.12853307
000060 e1 14 69 bd dd ac d9 3d 7d df d0 bc f8 58 64 be
       -0.056904677 0.10628674 -0.025497193 -0.22299564
000070 2f 44 96 bc 9d 12 93 bd eb ef 90 3d 60 52 3b be
       -0.01834306 -0.071812846 0.07077011 -0.18293142

layers.4.weight f4 [32, 32]
000000 e2 2a 69 be 32 53 5f bf d5 ec d0 3e 09 d1 1a 3e
       -0.22770265 -0.8723632 0.40805689 0.15118803
000010 1f 20 68 3e e2 a9 37 bf 93 73 8b 3d 53 34 88 3c
       0.22668503 -0.71743596 0.068091534 0.016626513
000020 34 18 89 be 8f 7c 2f bf 8c 39 aa 3e 20 0c 39 3f
       -0.26776278 -0.68549436 0.3324703 0.72284126
000030 3d cf 55 3f 13 ae e6 be 0e 28 ab 3d a2 ef 8c be
       0.83519346 -0.45054683 0.08357249 -0.27526575
000040 8c 4e c6 3e 54 c8 9e 3e a4 8c 14 3e 58 54 b0 3f
       0.38731802 0.31012213 0.14506775 1.377574
000050 58 fa 6c 3e 85 2f bf bd f4 42 76 3e dc 63 52 3c
       0.23142374 -0.093352355 0.24048978 0.012841191
000060 33 8d 02 3f 1b 04 23 bf 9d 19 3b 3f 9e 86 5f 3f
       0.509967 -0.6367814 0.7308596 0.87314785
000070 36 92 26 3e 45 a0 42 be b7 47 a1 3e 5c ae 25 3e
       0.16266713 -0.1900645 0.31500027 0.16179794
000080 5c e2 60 3f 3c d4 4d 3d c1 bd c4 be 9a 29 2f be
       0.87845397 0.05025123 -0.3842602 -0.17105713
000090 13 b4 32 be 6b 62 88 3e 61 6d 8a bd e7 55 13 3e
       -0.17451505 0.26637587 -0.067591436 0.14388238
0000a0 af 4f 07 3e 53 a3 5a 3e a5 66 14 bf f1 6c bf bd
       0.1321399 0.21351366 -0.57969123 -0.09346951
0000b0 39 45 f0 be 07 98 7f 3e 8a 9b a4 be 38 f3 bb 3e
       -0.46927813 0.24960338 -0.32149917 0.36709
0000c0 59 99 36 be 8c eb 1d be cc 17 47 be fa f7 05 3d
       -0.17831935 -0.15421885 -0.19442672 0.032707192
0000d0 2d ce 0e bf b8 93 fa 3e df 4d 0b bf d5 d3 8e 3e
       -0.5578335 0.48940825 -0.54415697 0.2789599
0000e0 f0 3d 19 bf e9 09 9c be e8 13 71 be 61 78 12 be
       -0.59860134 -0.3047631 -0.2354275 -0.14303733
0000f0 83 f5 0a 3e 95 40 ba 3e 26 e2 2c be f6 96 7f be
       0.13570218 0.36377397 -0.16883144 -0.24959931
000100 19 c0 27 3f 18 d7 fa 3d 7c 15 e4 be cc b5 6a be
       0.6552749 0.12248057 -0.4454764 -0.22920913
000110 8b 7c bc be d4 2a a5 3e 7e ae 5b be 84 28 e8 be
       -0.3681377 0.32259238 -0.21453282 -0.4534341
000120 13 75 a9 3e f8 5c ca 3e 9c b2 d4 bd 8e b9 16 be
       0.33097133 0.39524055 -0.103856295 -0.14719221
000130 d2 34 38 bf 7b 60 e4 3e 8c 29 f5 be 47 a4 10 3f
       -0.719556 0.4460486 -0.4788326 0.5650067
000140 53 a1 9c be 78 f2 c8 be 0a e6 e0 bd 26 46 be be
       -0.3059183 -0.3924749 -0.109813765 -0.37162894
000150 af 88 19 bf 96 cc b4 3e 86 0e d0 be ab 8d 8c 3e
       -0.5997419 0.35312337 -0.4063608 0.27451834
000160 50 89 11 bf 17 90 d0 be 5c bd e9 be a8 ff 69 be
       -0.5685015 -0.40734932 -0.45652282 -0.22851431
000170 37 d0 15 bd 45 7a 8f 3e 03 2c 94 be 02 82 58 be
       -0.036575522 0.28022972 -0.28939828 -0.21143344
000180 41 97 d6 be 43 d2 06 c0 c0 8e 09 3d 1c 9e a7 3e
       -0.41912273 -2.1065834 0.033583403 0.32737815
000190 93 20 cd 3d 5f fd fa be 12 84 67 3f 9e b6 89 3e
       0.10015979 -0.49021432 0.904359 0.26897138
0001a0 4b 43 01 be 23 f2 a1 bf e5 23 8a 3e a3 6b 0b 3f
       -0.12623326 -1.2652019 0.2698051 0.54461116
0001b0 b9 a2 94 3f c1 1e 2b bf e3 0b 38 3e ab 2a 33 bf
       1.1612159 -0.668438 0.17973284 -0.6998698
0001c0 09 93 53 3f 60 21 ee 3e 98 88 8e 3e 0d 4e cb 3f
       0.8264623 0.46509838 0.27838588 1.5883194
0001d0 5b 2f 9e 3e e9 76 2e bf 63 f3 33 3f 46 0b e4 be
       0.30895504 -0.6815019 0.70293254 -0.4453985
0001e0 40 32 91 3f 41 e6 e0 bd 73 d6 a6 3d 01 1d 99 3f
       1.134346 -0.109814174 0.08146372 1.1961976
0001f0 a1 7d 33 bf ec 09 cb be b9 82 a7 3e b3 51 f6 3d
       -0.7011357 -0.39656007 0.3271692 0.12027302
000200 7d 10 49 3f 4f 13 bf 3e 69 44 f8 be 30 53 2f be
       0.78540784 0.3731942 -0.48489693 -0.17121577
000210 cb 9c 1e bf 8a 52 9d 3e a8 6b 91 be 1f 36 81 bf
       -0.61958 0.30727035 -0.28402448 -1.0094641
000220 91 20 8b 3e 9a 29 64 3e bf c2 d6 be de b9 8f be
       0.27173284 0.22281495 -0.41945454 -0.28071493
000230 d2 34 02 bf af e1 e9 3e 4b 2a e2 be f9 51 de 3e
       -0.5086185 0.45679995 -0.44172892 0.43421915
000240 74 34 da be be 6f c3 be 11 9c 96 bd 95 1d 93 be
       -0.42618144 -0.3817119 -0.07353986 -0.28733507
000250 29 c7 1e bf 32 c5 bb 3e e2 08 bb be f8 79 92 3e
       -0.62022644 0.36673886 -0.36530215 0.2860868
000260 b0 f5 49 bf ce 6e 1d bd ca 02 cf be bc d7 c5 be
       -0.78890514 -0.03843575 -0.40431815 -0.38641155
000270 e1 5d 0e 3e 4e 54 4d 3e b3 13 06 bf 9a f0 ab bd
       0.13903 0.20051691 -0.5237381 -0.083955005
000280 af bd f8 be 28 ac 55 be 08 c3 c7 3e ef 6c a9 3e
       -0.48582217 -0.20866454 0.39015985 0.33090922
000290 88 7b 9d 3e 78 4a 97 be 94 4f cd 3e 26 92 c1 3e
       0.3075831 -0.29549003 0.40099776 0.37806815
0002a0 4b 61 c0 be 0e bc 31 bf 06 4a 1a bc b5 79 a5 3d
       -0.3757423 -0.69427574 -0.009417063 0.080798544
0002b0 a5 1c 56 3f 7a 27 15 bf 07 e2 0c 3f 7c 90 3a bf
       0.8363746 -0.5826336 0.5503239 -0.72876716
0002c0 b9 15 d7 3e 69 e4 92 3e 6b 5a 1a 3e 74 80 18 3f
       0.4200876 0.28689888 0.15073554 0.59571004
0002d0 c1 e7 30 3f 32 77 ae be b2 4b d5 3e cc 35 fc bd
       0.6910363 -0.34075314 0.41659313 -0.123149484
0002e0 91 a4 38 3f 70 0c a1 3e 9f f1 2e 3e ac 19 92 3e
       0.7212611 0.31454802 0.17084359 0.2853521
0002f0 88 8e d0 bd b3 33 b2 be 96 b3 b7 3e 71 f0 3f 3e
       -0.10183436 -0.34805068 0.358792 0.18744065
000300 75 f3 55 3f d7 91 e3 3d 6e 4b 3c bf c2 46 1e bf
       0.8357461 0.11111801 -0.73552597 -0.6182672
000310 af a8 94 be 5c 33 c1 3d d3 f1 7e bd 22 af 7f 3d
       -0.29034945 0.09433624 -0.06224234 0.06242288
000320 39 c8 07 3f a6 4f 23 3d 2c f9 53 bf c1 80 2d 3d
       0.5303989 0.03987088 -0.8280208 0.042359117
000330 a8 dd 58 be fd d4 29 3e 16 61 c2 be a9 2e 28 3e
       -0.21178305 0.16585155 -0.37964696 0.1642405
000340 16 11 63 bb c8 05 ca 3d 4a 03 9e bf dd d0 3e be
       -0.0034647635 0.09864384 -1.2344754 -0.18634363
000350 ac 39 46 bf db e7 95 3e 20 28 1e bf 79 d0 39 3f
       -0.7743175 0.29278454 -0.61779976 0.7258373
000360 25 24 61 bf 97 2b 83 be fb 50 23 be 84 f5 7d bb
       -0.8794578 -0.25619194 -0.1594886 -0.0038751075
000370 0c 1e 5c 3f 90 eb 97 3e 62 6d 5e bf cf 6d ca bd
       0.8598335 0.29671907 -0.86885655 -0.098842256
000380 8f 2b c7 bd 97 9b 70 be 15 64 df 3e 7a 70 4b 3e
       -0.09725105 -0.23496853 0.43631044 0.19867125
000390 59 77 2a 3f 99 db 19 bf 99 b1 5a be d7 d3 41 3c
       0.6658836 -0.60100704 -0.2135681 0.011830292
0003a0 4e 22 d9 bd 06 c6 2c be b8 b7 3b be 7b 70 57 3e
       -0.10602246 -0.16872415 -0.18331802 0.21039002
0003b0 70 f7 1b 3f 67 0b cb bd 61 ad 9f 3e 52 5f b5 be
       0.60924435 -0.09914284 0.31186965 -0.35424286
0003c0 61 b3 87 3e 9b ee b6 3e a1 46 b9 3e 55 9f 70 3f
       0.26504043 0.35728917 0.36186698 0.9399312
0003d0 b8 ab e8 3e 0c 83 0a be 1a fa 90 3d ff 06 39 3e
       0.4544351 -0.13526553 0.07078953 0.18069075
0003e0 c1 ef 09 be ae 1e a0 be ea 7b 95 3f a7 99 cd 3e
       -0.13470365 -0.31273407 1.167844 0.4015629
0003f0 19 cd 56 be 90 c1 c4 be b8 9b c3 3e ff 88 ae be
       -0.20976676 -0.38428926 0.3820474 -0.34088895

layers.4.bias f4 [32]
000000 40 2a ed 3d f2 a5 e4 bc 67 a6 0e be 6b 29 87 3e
       0.11580324 -0.02791116 -0.13930665 0.26398787
000010 c7 62 84 bc e3 1d 6a 3e eb f4 b6 bd cb 53 04 3d
       -0.016160382 0.22862963 -0.08933433 0.032306474
000020 36 2e 3b be 38 c8 94 3d 56 c2 30 be e8 76 f1 3d
       -0.18279347 0.07264751 -0.17261633 0.11790258
000030 24 60 ee 3d bc 71 03 bb f4 34 02 be 1c 13 03 3e
       0.11639431 -0.0020056805 -0.12715513 0.12800258
000040 b5 2d 0d 3e 40 d5 4f 3e 26 0a 4c be f4 8c 15 be
       0.13786967 0.20296192 -0.19925746 -0.1460455
000050 e0 3c 0b 3d 0d 17 9e be 1e c3 e6 3e cc a4 12 bd
       0.0339936 -0.3087696 0.45070738 -0.035801694
000060 3e c2 16 3e 55 39 08 bf 8e ea f3 3c 26 ea 82 3d
       0.14722535 -0.5321248 0.02977493 0.063923165
000070 1e 02 e7 bd aa 98 5f bd ba 8b 8c be 31 45 8f be
       -0.11279701 -0.05458895 -0.27450353 -0.27982476

layers.6.weight f4 [1, 32]
000000 02 c7 a6 3f 3a 91 8e c0 db d7 6c c0 80 13 e5 3f
       1.3029482 -4.455228 -3.7006748 1.7896576
000010 92 68 4e c0 ca 58 4d 40 73 6f e6 bf 8a e7 dd 3f
       -3.2251325 3.2085443 -1.8002762 1.7336285
000020 67 56 23 40 cc 8c 92 40 19 99 58 c0 4c 36 df 3f
       2.5521486 4.579687 -3.3843443 1.7438445
000030 62 17 e5 3f c0 52 2d 40 58 f1 e1 bf 5a 2f da 3f
       1.7897761 2.7081757 -1.7651777 1.70457
000040 1d c7 e3 3f 18 70 f8 3f 5c a6 4c c0 ad b9 3c c0
       1.779514 1.9409208 -3.1976538 -2.9488328
000050 9e 70 87 40 ca b2 11 c0 64 ae ed 3f bc 5c 7e c0
       4.232497 -2.2765374 1.8568845 -3.97441
000060 14 9b 4d 40 8d d9 ed bf 52 85 89 40 a7 04 5c 40
       3.2125902 -1.8582016 4.2975245 3.437784
000070 44 36 8d c0 e0 e1 e5 bf 54 37 e8 bf a4 5b e9 bf
       -4.412874 -1.7959557 -1.8141885 -1.8231091
